streamlit/views/models/lstm/lstm.pth (torch, 54862 bytes, 9 tensors)

lstm.weight_ih_l0 f4 [128, 1]
00000000: 4d7a 26be dacc 523e c241 103f 38fd 43be
00000010: 0a78 403f 8cdd 803f 4495 6ebe 9e62 303f
00000020: 42dd 53be e8fb 28bd fc44 9d3e 1d7d 29be
00000030: 692e 8c3e acb1 d93e 3382 b9be 1300 7e3e
00000040: 8ed3 73c0 2ea9 ebbc 35b1 4abd 8b91 823e
00000050: dae4 57bd 24e9 1e3e e420 fabe 756c b1be
00000060: 4af2 793e 4fae bdbe 3182 173f d160 7c3f
00000070: b2a4 3b3e 6cb3 243f 06ca 363f 157c 183f
00000080: 534a df3e 6a4d aa3e d509 f03e 1015 653e
00000090: 1e77 403f 7224 803f e917 c13e 9973 3a3f
000000a0: e44e c83e 7e78 113f 3cd4 fe3e 5b01 4d3f
000000b0: b748 593e 2cdf b93e a6d5 333f 10c2 993c
000000c0: be7c 42c0 eb78 073f 5ed8 1e3f 9906 d63e
000000d0: 77c5 023f e215 b63e 404a 81be e6ba 003f
000000e0: 1638 933e 063a 2b3f 2c3c 643f 2bbe 883f
000000f0: 5733 b03e 9ee2 0a3f e29d 043f 8fbd 423f
00000100: e0af 87bf 5e23 31bd 2058 423d 0380 523c
00000110: 939f 673f e7ab 2bbf f248 843f c3da 903e
00000120: bd56 5c3e e385 563f 6ca1 bb3d 022f 3bbe
00000130: 9e8e 22bf cb0a 393e 0a3e 97bc a260 333e
00000140: e622 04bf 72d0 cc3e 3dba 6dbf 7201 a63e
00000150: 0333 4f3f f890 ac3e 0f38 e2bd ade1 6b3f
00000160: 00ca bd3e 4cf0 5ebf 2d94 733f dab3 6f3f
00000170: 7498 463e 0a12 5b3f 95cb 69bf 7b70 85bf
00000180: af4b 7fbe f0c0 b8be 7e32 35bf c830 2cbf
00000190: 8a2d eb3f 87ec aa3f d0e5 6b3f 5a3c 393e
000001a0: 7110 83bf 3a4e 4140 ea7e a9be 9d04 4fbf
000001b0: bc96 81be c70b a6be a082 2ebf a55e ddbe
000001c0: 2683 85c0 b753 fcbe ba79 8b40 33fc b8be
000001d0: 678b 813f ad3b 00bf 0d7f 1abf a5d2 06c0
000001e0: b7de 94be 52a3 fa3d 9fdd 883f 397a ae3f
000001f0: e63e dfbe 2cd7 bbbd 3498 7d3f 8d9d a33f
-0.16257592 0.20585957 0.5635034 -0.19139564 0.75183165 1.0067611 -0.23299128 0.6890048
-0.20689872 -0.04125586 0.30716693 -0.16551633 0.27379158 0.42518365 -0.36232147 0.24804716
-3.8097873 -0.028767195 -0.049485404 0.25501665 -0.052708484 0.15518624 -0.4885322 -0.3465306
0.24408832 -0.3704705 0.5918303 0.9858523 0.18324545 0.64336276 0.71402013 0.59564334
0.43611392 0.33262187 0.468825 0.22371316 0.7518176 1.0011122 0.37713555 0.7283264
0.3912269 0.5682448 0.49771297 0.80080193 0.21219145 0.3630308 0.70247877 0.018769294
-3.0388637 0.5291888 0.620489 0.4180191 0.5108256 0.3556357 -0.2525196 0.50285184
0.28753728 0.6688541 0.89154315 1.0683035 0.3441417 0.5425204 0.5180341 0.76070493
-1.0600548 -0.04324662 0.047447324 0.012847903 0.90477866 -0.6705918 1.0334761 0.28291902
0.21517463 0.83798045 0.09161648 -0.18279651 -0.63498867 0.18070523 -0.0184622 0.17517331
-0.5161575 0.4000278 -0.928623 0.32422978 0.8093721 0.33704352 -0.110458486 0.9214123
0.37068176 -0.87085414 0.95147973 0.93633807 0.19394094 0.855744 -0.91326267 -1.0424951
-0.24931215 -0.360847 -0.7078017 -0.67261934 1.8373272 1.3353432 0.9214754 0.18089429
-1.0239393 3.0203996 -0.3310464 -0.80866414 -0.25310314 -0.3243086 -0.6816807 -0.4323627
-4.1722593 -0.4928262 4.358609 -0.36129913 1.0120667 -0.5009106 -0.60350114 -2.1066067
-0.29076168 0.12238182 1.0692633 1.3631049 -0.43602675 -0.091719 0.9906037 1.2782456

lstm.weight_hh_l0 f4 [128, 32]
00000000: ab9e 41be 5474 073f 59f2 28bf 021e 1c3f
00000010: 8d5d d23d 3055 09bf 9b65 5e3f d0b2 fcbe
00000020: d82b 42bf 5450 e3bd 08b8 323f 8736 ad3e
00000030: ad47 2c3f d528 6bbf 0466 113f aaa6 dc3e
00000040: ff19 0cbf e948 95be 8c44 4d3e b26a 08bf
00000050: 8db5 97bd bfa0 2b3f f03a 5c3f e2a2 8b3f
00000060: 92cd 193f 5a74 5ebf d23a 393d 41e1 c7bd
00000070: 1e53 eebe eaec 073f ac57 053c 8492 9c3e
00000080: 6391 843f 2531 eebe fe14 b13e 8280 1cbf
00000090: 1f14 73bf 71b3 353f 9800 62bf d33a 163f
000000a0: 2cef 433f 3f54 6cbf d4b2 51bf 73d1 f3be
000000b0: 5141 09bf 3980 ea3e 58ba 04bf d89f 4fbf
000000c0: 9010 043f b6a9 323f 6981 6f3f 7bb7 3b3f
000000d0: e53e 60bf d6fc 29bf 7642 5ebf 53c1 5abf
000000e0: 4307 2ebf 8719 3d3f a21c 7dbf 6493 57bf
000000f0: 4ad9 3b3f 2f4b 32be 5083 963f 64dc 533f
00000100: 7b03 6e3f 2022 16bf f076 e73e ca4d febe
00000110: 7450 2abf 4f93 043f 5019 42bf e2a3 033f
00000120: b3ac f93e 2aa2 6fbf c666 06bf a475 18bf
00000130: 5bf0 24bf dbc7 cf3e 99e0 02bf be8d 17bf
00000140: 63b6 2b3f eeec 393f cb22 843f 9e59 393f
00000150: 718b 6fbf f239 18bf e254 09bf 4254 6bbf
00000160: 1862 26bf 17d3 383f 6242 3bbf 0c29 45bf
00000170: 6f70 253f 2f57 20bf 236a 383f 05b6 573f
00000180: 3981 833f 6ddd 8abe 4d49 acbe a12e 2ebf
00000190: e3d9 80bf 3ff7 293f dc35 8fbf 4394 1c3f
000001a0: a131 eb3e 16b7 82bf 429f 13bf 6e62 a7be
000001b0: d922 51bf 7428 1b3f a5ee 29bf dc3d 23bf
000001c0: 1510 e23e 7349 283f 591f 593f 7740 d83e
000001d0: c798 89bf e3fd fdbe e4a2 13bf 2334 3cbf
000001e0: a4c2 05bf 730d 603f d615 7abf d092 1cbf
000001f0: 49c2 203f 81bb 473d 1e6b 783f c091 6e3f
00000200: 86fb 45bf 0ce6 e83e 2a1a 0ebf bb51 3d3f
00000210: 3ca5 553f 754b d1be d54b 863f 658f 06bf
00000220: 3709 25bf 5994 3d3f 9c0b 413f fbcd a93e
00000230: 7731 143f 250c 31bf ad6e 0d3f 4ef8 173f
00000240: d31c 933d ba31 cfbe c89c 2cbf ddda 00bf
00000250: a9d5 843f 3a52 143f e6c9 493f 9b58 7a3f
00000260: 40c6 1f3f 808c 5dbf f807 383f c36d 203f
00000270: 595f 3dbf 71c5 ed3e b5d3 59bf 5369 7fbf
00000280: 9a1f 18bf 1b48 493f c1c8 35bf 7cec 303f
00000290: 8ecc 843e 927c 91bf f5bb 1a3f 1dd0 1abf
000002a0: a237 5dbf 826e 8c3e 847f 2c3f 7d97 3c3f
000002b0: dbb0 333f 3073 5abf fe97 323f 9a48 493f
000002c0: bae6 ed3e 3756 70bf e801 e1bd 8ddc 4bbf
000002d0: 4a57 af3e 825a 213f 1f15 0f3f d5d3 6dbe
000002e0: 414f 313f e01f e9be 2c86 e43e e69f d23e
000002f0: cb5c 3dbf dc4c 2d3f 7fdb 5bbf c580 3dbf
00000300: 6cc2 f7bd c4ad 063f 3a3c f5be 1a54 2b3f
00000310: edc9 323e e2ed 0bbf 2590 8b3f 9b06 36bf
00000320: 1b14 10bf 178c 2ebc d048 013f ccfb ed3e
00000330: 4f33 033f e636 2ebf 7cf0 f23e c2fe 353f
00000340: d433 56bf 334c 26bf 680e da3d 7360 2cbf
00000350: e4ec ddbd 2147 303f dfd1 783f 8f55 8f3f
00000360: 169f 243f 520b 5bbf 8816 943d 128e e7bd
00000370: d638 5abf 0bac 113f 8378 edbd f7f6 1b3e
00000380: 4335 803f 55ec 43bf 5736 113f 7fe5 44bf
00000390: cc64 8ebf a746 463f a4cb 55bf affc 493f
000003a0: 6986 413f 9591 65bf 055a 68bf b671 3cbf
000003b0: 6d68 1fbf aebd 233f 64bd 22bf bddd 80bf
000003c0: 47bf 383f 47ff 1f3f f132 bf3e e4d9 493f
000003d0: 2df2 73bf 9a28 2bbf fe7e 27bf 90d8 72bf
000003e0: 5c8b 59bf d89f 7e3f ed51 86bf d213 74bd
000003f0: 86cb 5d3f 321e 3dbf 00a2 7b3f 7f20 3b3f
-0.18908183 0.5291188 -0.65994793 0.6098329 0.1027175 -0.5364561 0.8687379 -0.49355173
-0.7584815 -0.11099306 0.6981206 0.33830664 0.6729687 -0.9185918 0.5679629 0.43095905
-0.54727167 -0.2915719 0.2004568 -0.53287804 -0.07407675 0.67042154 0.8602743 1.0909083
0.600793 -0.8689629 0.04522211 -0.09759761 -0.46547788 0.5309588 0.008138578 0.30580533
1.0356869 -0.4652187 0.34586328 -0.6113359 -0.9495258 0.7097693 -0.88282156 0.5868351
0.7653682 -0.9231605 -0.81913495 -0.47620735 -0.5361529 0.4580095 -0.5184684 -0.8110328
0.5158777 0.6979021 0.9355684 0.73326844 -0.8759597 -0.6640142 -0.8682016 -0.8545124
-0.6797983 0.73867077 -0.98871815 -0.84209275 0.7337843 -0.17411493 1.1758823 0.82758164
0.9297406 -0.5864582 0.4520793 -0.49668723 -0.6652901 0.51787275 -0.75819874 0.5142194
0.48764572 -0.9360682 -0.5250057 -0.59554505 -0.64429253 0.40582165 -0.5112396 -0.59200656
0.67075175 0.7262715 1.0323118 0.7240237 -0.93572146 -0.5946342 -0.53645146 -0.9192544
-0.6499343 0.721971 -0.7314817 -0.7701576 0.64624685 -0.6263303 0.7203695 0.84262115
1.0273811 -0.2712206 -0.33649674 -0.680399 -1.0066494 0.6639289 -1.1188312 0.6116373
0.459363 -1.0212123 -0.57664883 -0.32692283 -0.816938 0.606086 -0.6637977 -0.63766265
0.44152895 0.65737075 0.8481346 0.42236683 -1.0749749 -0.49607763 -0.57670426 -0.73517054
-0.52250123 0.8752052 -0.9768957 -0.6116152 0.62796456 0.048762802 0.9703845 0.93191147
-0.7733692 0.45488012 -0.55508673 0.73952836 0.8345525 -0.40877882 1.0491892 -0.5256255
-0.64467186 0.74054486 0.7540834 0.33164963 0.5788798 -0.69159156 0.55247 0.5936326
0.07183232 -0.40467626 -0.6742673 -0.5033396 1.0377704 0.5793797 0.788237 0.9779145
0.6241188 -0.8654251 0.7188716 0.62667483 -0.73973614 0.46439698 -0.85088664 -0.99770087
-0.5942322 0.7862565 -0.7100945 0.69110847 0.25937313 -1.1366141 0.6044305 -0.60473806
-0.86413014 0.2742806 0.67382073 0.7366865 0.70191735 -0.8533201 0.6976317 0.78626406
0.46465093 -0.93881553 -0.10986692 -0.7963341 0.34246284 0.6302873 0.55891603 -0.23225339
0.69261557 -0.4553213 0.44633615 0.41137618 -0.73969716 0.67695403 -0.858818 -0.7402461
-0.1209763 0.52608895 -0.47897512 0.66925204 0.17459841 -0.54659855 1.0903364 -0.7110383
-0.5628068 -0.010653517 0.5050173 0.46481168 0.51250166 -0.6805252 0.474491 0.71091855
-0.83672833 -0.6496002 0.10647279 -0.6733467 -0.10836199 0.68858534 0.9719524 1.1197985
0.64305246 -0.8556415 0.0723086 -0.11306395 -0.85242975 0.5690314 -0.115952514 0.15230928
1.0016254 -0.7653249 0.5672354 -0.76912683 -1.1124511 0.77451557 -0.83513856 0.7890119
0.7559572 -0.89675266 -0.9076236 -0.7361101 -0.62268716 0.63961303 -0.6357024 -1.0067669
0.72166866 0.624989 0.37343553 0.788481 -0.95291406 -0.6685883 -0.6542815 -0.948617
-0.8497827 0.9946265 -1.0493752 -0.059589215 0.8663868 -0.738742 0.9829407 0.7309646

lstm.bias_ih_l0 f4 [128]
00000000: bf09 e6bd 3707 a1be 9856 11bf 77f5 49bf
00000010: 4117 2b3f fbcc 433f 8408 e5bd 2963 923a
00000020: 7d2a 1dbf 0249 a2ba 0505 f2be fc61 2ebf
00000030: ab7d 3dbf 1b56 0abf fd8c afbe 645e 01bf
00000040: 938f eabd 6dbe 1cbf 3e29 ca3c 7628 0cbf
00000050: 8521 62be 72ca e2be a5ad 09bf f8a3 e9bd
00000060: c0a3 07bf 5409 7abe a11c 403f 37f8 633f
00000070: 01cd 0dbf a268 27bf 1f8f 693f 9ba9 023f
00000080: 765d 4b3f dc3f 053f 26eb 0d3f 3527 dbbc
00000090: fad3 353f 6dbe 833f c7b9 563f 0528 de3e
000000a0: cb4b c93d 51dc 3c3f 1af6 c83e 3cf8 813d
000000b0: ab62 f23e 2c56 063f 3390 933e 1eb2 923e
000000c0: 0ba4 01bf 184f d13e 5136 093f ac45 aa3e
000000d0: a2fb 1b3f ba9e 873e ba7d 36be a8a0 e83e
000000e0: 4934 f33e af34 583f dd05 2f3f ebd4 413f
000000f0: 7ac2 4c3e b766 97be 6276 363f 2f0a 3f3f
00000100: fe59 66bf 6ee0 f9be 631d 233f aa9e e3be
00000110: bcf3 833f 4446 80bf d410 533f ef57 a03e
00000120: 5bb6 f63e 708a 3f3f 1e00 ea3e 09b3 94be
00000130: 240e f0be 267c 9c3d 4127 5bbe 3f8a e4bd
00000140: 9e8e 5f3e 8c8e 8a3e 22bf 89bf d52d 063f
00000150: 8864 733f 0f20 79bd e17a 703e 6723 7fbd
00000160: 6e4a a7be eb35 30bf 22b3 403f a576 5c3f
00000170: e569 d43e 656b 9bbe 0435 61bf 4187 78bf
00000180: ec47 4bbf cb68 f7be c08b 01bf 29c6 5bbf
00000190: b01e f13d 7527 b13d 9341 51bf 7201 11bf
000001a0: 3ac1 2abf 93b5 38be 3e1e 36bf 60b5 31bf
000001b0: fe89 d6be bf42 0abf 9a06 21bf 595f 54bf
000001c0: 128b 81be dc9b 31bf c233 b2be 9009 26bf
000001d0: ea02 46bf 2d5f 60bf 385a 1dbf 5bd0 05bd
000001e0: 1b54 3bbf 656d 48bf 58b1 f83e 9108 483f
000001f0: 07d5 15bf f0f5 e0be f3cc 303f f395 003f
-0.11232328 -0.31450817 -0.56772757 -0.78890175 0.6683236 0.7648465 -0.11183265 0.0011168468
-0.61392957 -0.0012381377 -0.47269455 -0.6811826 -0.7401988 -0.54037637 -0.34287253 -0.50534654
-0.11453166 -0.61228067 0.024677869 -0.5474924 -0.22083099 -0.4429508 -0.53780586 -0.11408228
-0.5298424 -0.24417621 0.75043684 0.8905062 -0.55390936 -0.6539403 0.9123401 0.5104005
0.79439485 0.52050567 0.55436933 -0.026752094 0.71026576 1.0292488 0.83877224 0.43389907
0.098289095 0.73773676 0.3925026 0.06346175 0.47340903 0.5247524 0.28820953 0.28651518
-0.50640935 0.40880656 0.53598505 0.3325628 0.60930836 0.26488286 -0.17821398 0.4543507
0.47500828 0.8445539 0.6836832 0.7571551 0.19996062 -0.29570553 0.7127439 0.74624914
-0.8998107 -0.4880404 0.63716716 -0.4445699 1.0308757 -1.0021443 0.8244755 0.31317088
0.48186 0.74820614 0.45703214 -0.29042843 -0.46885788 0.07640867 -0.21401693 -0.11159181
0.21831748 0.2706188 -1.0761454 0.52413684 0.95075274 -0.06082159 0.23484375 -0.06228962
-0.32673973 -0.6883227 0.75273335 0.8611854 0.4148704 -0.30355373 -0.8797152 -0.9708138
-0.7940662 -0.48322138 -0.50603867 -0.85849243 0.11773431 0.08650104 -0.81740683 -0.5664283
-0.6670109 -0.18038015 -0.71139896 -0.6941738 -0.41902155 -0.54008096 -0.629007 -0.8295799
-0.25301415 -0.6937845 -0.34805113 -0.6485834 -0.77348197 -0.87645227 -0.6146579 -0.032669406
-0.7317521 -0.7829192 0.48572803 0.7813807 -0.5852818 -0.43937635 0.6906273 0.50228804

lstm.bias_hh_l0 f4 [128]
00000000: 47dd d5bc 6898 dabe 89a6 dcbe 86e3 f3be
00000010: c236 ae3e 4ff3 4e3f 8165 b53c 86df 853e
00000020: 09de 5fbf dc0b 73bd c98e 2fbf 43c0 dcbe
00000030: c608 1ebf 338f 04bf e282 1ebf 216d b4be
00000040: 70cf 00be f096 adbe 40c4 bb3d cbd6 05bf
00000050: e7a9 32bd f8fb e3be cae4 05bf 66ad eabd
00000060: da01 f8be 0b94 e0be 75d7 253f 4f06 393f
00000070: a5be 2abf 7c9d 60bf bb9c 723f b637 113f
00000080: ed8f 683f 7c55 ef3e be91 143f ec69 863e
00000090: 9449 2e3f 7cab 843f d7c9 3a3f 2218 083e
000000a0: 1ff7 743d 8fbd 483f 7ad5 e23e 32a7 91bc
000000b0: 0338 d33e 0097 0e3f 27e4 963e c1ab ac3e
000000c0: 0906 1abf 05db 253f 8b94 233f 25be ba3e
000000d0: 1b75 103f c99f d73e a836 e5bd aef0 c03e
000000e0: e7c2 b53e 7d66 133f 3ffd 273f 9523 6f3f
000000f0: b13d ce3e d089 98be ba82 183f 6f91 4a3f
00000100: a137 47bf 8dfa 06bf 6ef0 e53e 1d23 2bbf
00000110: 5bb7 523f 8695 8cbf b2ec 543f 46ee ed3e
00000120: 7a44 213f d6d7 763f 3f00 a33e 92ca 01bf
00000130: e876 ddbe 9d19 d33d 1bb9 ebbe 646b 73be
00000140: a896 393e cf7a 003e 1861 53bf 3e1d 0b3f
00000150: a445 723f ecb5 6bbe 47cb 443e a033 2fbe
00000160: aeef 6cbe 2189 34bf b351 893f 1ec7 813f
00000170: a887 163f 022e babe feba 51bf 7ba4 39bf
00000180: 8457 58bf a87c 16bf 78dd 1abf 653f 35bf
00000190: b8df cabd 5a9a 933e 2ad7 4bbf 2824 dcbe
000001a0: ef86 21bf 20d8 91be c594 efbe e3ef 04bf
000001b0: d075 f3be ede8 f8be 82cd 26bf a401 23bf
000001c0: c3c9 a7be 4449 29bf 6a93 5cbe e8e7 26bf
000001d0: d2e5 1abf 3e38 2ebf 9417 bebe 8a0b 22be
000001e0: 0983 34bf f020 50bf 4d4d 213f d572 4e3f
000001f0: 393f 0cbf 9201 c8be 798a 133f 3336 073f
-0.02610649 -0.42694402 -0.43095806 -0.47634524 0.34026152 0.8084001 0.022143127 0.26147097
-0.87448174 -0.05933748 -0.6857725 -0.43115434 -0.6173214 -0.51781005 -0.6191846 -0.3523951
-0.12579131 -0.3390422 0.09168291 -0.52280873 -0.043619063 -0.44528174 -0.5230223 -0.114588544
-0.48438913 -0.43862948 0.64781886 0.7227525 -0.6669715 -0.877403 0.947704 0.56725633
0.90844613 0.46744907 0.58034885 0.26252687 0.6808102 1.0364833 0.72964233 0.13290456
0.059805986 0.78414243 0.44303495 -0.01777992 0.4125367 0.5569916 0.2947094 0.33724788
-0.6016546 0.6478732 0.63898534 0.36473194 0.5642869 0.42114094 -0.111920655 0.37683624
0.3550026 0.5757826 0.656208 0.9341367 0.40281442 -0.29792643 0.5957447 0.79128164
-0.7781926 -0.5272606 0.44909996 -0.66850454 0.8231103 -1.0983131 0.8317367 0.4647085
0.6299511 0.9642309 0.31836125 -0.5069972 -0.4325478 0.1030762 -0.46039662 -0.23771435
0.18123877 0.12546848 -0.8257003 0.54341495 0.94637513 -0.23018616 0.19218169 -0.17109537
-0.23138306 -0.7052174 1.0728058 1.0138891 0.58800745 -0.36363226 -0.8192595 -0.725166
-0.8450854 -0.5878396 -0.60494184 -0.7079986 -0.09905952 0.28828698 -0.7962519 -0.42996335
-0.6309652 -0.28485203 -0.4679319 -0.5192854 -0.4755082 -0.48615208 -0.6515733 -0.6367438
-0.3277112 -0.6612742 -0.21540609 -0.6519761 -0.6050693 -0.6805457 -0.37127364 -0.15824714
-0.70512444 -0.8130026 0.63008577 0.8064397 -0.5478397 -0.39063698 0.5763317 0.52817076

lstm.weight_ih_l1 f4 [128, 32]
00000000: f5fc b2be 1484 e53e 3022 22bf b570 d93e
00000010: 8d27 0abe dafb 1c3c 9de6 963e 5adf 82be
00000020: e93c dcbe c902 003e 7800 8d3e c3d4 bf3e
00000030: 84bf c83e 10f9 0fbe d0d3 0b3f 653e 833e
00000040: faae 0ebf cb88 4abe b00b 89be a374 04bf
00000050: c14e c33e 6570 9b3e 9295 e83e 7ea8 f93d
00000060: b379 e43e d7b8 babe 4e3f 8abe 4087 32be
00000070: 8755 b7be e9ec e13e 7420 4d3e 9f1b 463e
00000080: b948 c13e 6844 b03d 3f91 ad3b a768 f43e
00000090: c82a d4bd 4316 ccbf 3365 efbe 297e 54be
000000a0: f856 cebd eed3 79be 0416 803f 8b9a 453f
000000b0: 4e02 5d3f 7719 68bf 70da 473f 15a6 5d3f
000000c0: ec20 853e 5d5c 48bf 8dbf 483e 16be e6bd
000000d0: 394e e8be 2d57 173f 4df4 dc3e 7b82 4bbf
000000e0: 4f7e bd3e cb58 d93e f83f f53d be43 eabd
000000f0: e62b e4be d131 473f 984a 843e 508f 0fbd
00000100: df96 8d3f 02c0 353f 1a3d 3bbf 8e48 eabc
00000110: ce22 b5bf b544 693f 04f4 62bf 4f7f 01bf
00000120: 5437 afbe 1ad3 9bbf b413 b5bd 782c 093f
00000130: c804 9a3e d2f2 27be 13e0 153f 3cd6 1a3c
00000140: 162f 18bf e520 833e d798 b63f 7414 f5be
00000150: b26d a5bf 672d c5bc 7ed1 e7be 8d2b 063f
00000160: 2e63 f93d dc6d 523f 6ff7 90bf 65d3 b2bf
00000170: 9a8e 56bc 1020 0f3f a999 9f3f ae3f a83f
00000180: 4652 65bd d154 773f 1773 82bf fa95 423f
00000190: d5a7 b33d 8121 d8be bb1c a23e 4f0d 81bf
000001a0: 71b5 6abf af43 92bd c253 5d3f 0d10 583f
000001b0: 2702 573f cbdb 8dbf 258e 773f 3209 513f
000001c0: c235 023f 9f74 a0be c6af 923e ee9b 8dbf
000001d0: f84d e4be 2beb 7f3f 927c 613f fd77 f0bd
000001e0: a87c 753f 85b9 bebe 56ba d63d dd04 1b3d
000001f0: d644 57bf 607b 283e ce16 e5bd d519 d23d
00000200: 9434 0e3f 9fd6 afbe 5a4e 1a3f ccb2 04bf
00000210: 1c75 e5be 6b25 913f fbf9 51be 3521 0e3f
00000220: 4afd eb3e 90b4 4abe c7bb 10bf a3ce 52bf
00000230: a8c9 5bbf a06f fb3e 8382 0bbf 1ec4 0cbf
00000240: ab66 14bf 5b36 523f f5be 613e b6cf 3d3f
00000250: 257c 02bf c9a8 16bf 08f0 46bd 2eea 3e3f
00000260: 2cb1 19bf 4e99 913d 7b14 1abf 02f5 16bf
00000270: 4707 253f be2b 26bf a064 163f 4fe5 ae3e
00000280: 3eb4 7abf d8d0 e93e 6245 cfbd 178a 613f
00000290: be3b 293f b5bf 10bf 758a 4f3f 51bb 0abf
000002a0: 60eb 25bf 3d06 ca3e 5ce1 f03e a15c 5e3f
000002b0: 8752 5a3f 4f0c 6cbe 9168 5e3f 7c56 6d3f
000002c0: 7527 fa3e 0824 82bf c899 f0be bae3 5cbf
000002d0: 9665 1e3f a42f 5a3f 1827 cc3e 3425 0c3f
000002e0: f61d 5b3f 3501 d3be b6e6 103f 2eed 1e3f
000002f0: 9dc5 2bbf 83bd 1a3f aee8 80bf e374 35bf
00000300: 920a 49be 24b4 a03e 6888 0cbf 2393 fa3e
00000310: 7fd4 f63e ad7f 14bf 1bab 103f 80d4 11bf
00000320: 83b6 d2be 9b61 ca3e 279f db3e 2210 f73e
00000330: 390c 7d3e b925 1dbf 8ee2 863e 7f11 0a3e
00000340: d9d4 9e3e 6d87 c2be d81b 09bf 3986 bdbe
00000350: b4e4 e83e c7b2 d43e bbd7 573e 47a4 d5be
00000360: 6023 773e 3480 28bf 0194 c23e bf03 ad3e
00000370: 3d5f 97be cbe1 0a3f e14f aebe 7dbe aabd
00000380: fa34 7fbf 79d9 803e ae22 1bbe 59dc a63d
00000390: ad8b 763f b4a1 11bf c841 783e cf09 05be
000003a0: f963 4ebe c904 4d3f 9547 c83e bd3e b4bc
000003b0: 29c7 24bd 6b48 e9bb 159d 863e edd9 d73e
000003c0: 0e8e b83d 2609 ecbe b448 5fbf 009c 91be
000003d0: 41ad 603f d458 073e d8b6 a23e 3511 1f3f
000003e0: ed07 183e e0ec 12be 7ca9 523f 5be5 363f
000003f0: 8c27 5fbe 5b8a bd3e f112 58bf b6c7 77bf
-0.34958616 0.4482733 -0.63333416 0.424688 -0.1349165 0.0095815305 0.2947282 -0.2556103
-0.4301522 0.12501062 0.2753942 0.37467012 0.39208615 -0.14059854 0.54620075 0.2563354
-0.55735743 -0.19778745 -0.2676673 -0.51740474 0.38146022 0.30359188 0.45426613 0.121903405
0.446241 -0.36469147 -0.27001423 -0.17434406 -0.3580744 0.4412606 0.20031911 0.19346474
0.37750795 0.086067975 0.0052968557 0.47736093 -0.103597224 -1.5944294 -0.46756896 -0.20751251
-0.10075182 -0.24397251 1.0006719 0.7718894 0.8633164 -0.90663856 0.78067684 0.86581546
0.2600168 -0.78265935 0.19604321 -0.11266725 -0.4537218 0.59117395 0.43155137 -0.7949597
0.37010428 0.42450556 0.11975092 -0.11438702 -0.44564742 0.7781039 0.2583816 -0.035048783
1.1061667 0.70996106 -0.7314011 -0.02859905 -1.4151247 0.91120464 -0.8865359 -0.5058488
-0.342219 -1.2173798 -0.08841649 0.5358348 0.30081773 -0.16401222 0.58545035 0.0094504915
-0.5944685 0.25611034 1.4265393 -0.47867167 -1.2924101 -0.024069501 -0.45277017 0.52410203
0.1217712 0.8219888 -1.1325511 -1.3970762 -0.013095522 0.559083 1.2468768 1.3144433
-0.055986665 0.96613795 -1.0191373 0.76010096 0.08772246 -0.4221306 0.31662545 -1.0082186
-0.9168311 -0.07141816 0.8645593 0.8439949 0.8398766 -1.10827 0.9670127 0.81654656
0.5086328 -0.31338975 0.2864973 -1.1063211 -0.44590735 0.9996821 0.88080704 -0.11741636
0.95893335 -0.37250915 0.104847595 0.037846435 -0.8408941 0.16453314 -0.1118599 0.10258833
0.5554898 -0.3434343 0.60275805 -0.5183532 -0.4481591 1.1339544 -0.20505516 0.5551942
0.46091682 -0.19795442 -0.56536525 -0.8234655 -0.8585458 0.491086 -0.5449602 -0.5498675
-0.5796916 0.8211419 0.220455 0.74145067 -0.5097068 -0.58851296 -0.048568755 0.7457608
-0.6003597 0.07109319 -0.601875 -0.589676 0.6446423 -0.64910495 0.5874729 0.34159324
-0.9793128 0.45667148 -0.101206556 0.88101333 0.66106784 -0.5654252 0.81070644 -0.5419207
-0.6481228 0.39457884 0.47046936 0.8686009 0.85282177 -0.2305157 0.86878306 0.9271009
0.48858228 -1.0167246 -0.46992326 -0.86284983 0.6187376 0.85228944 0.39873576 0.5474427
0.8559259 -0.41211858 0.56602037 0.6208066 -0.6709841 0.6044542 -1.0071008 -0.7088148
-0.19632939 0.31387436 -0.5489564 0.4894038 0.48208997 -0.5800732 0.56511086 -0.56964874
-0.4115487 0.39527592 0.4289486 0.48254496 0.24711694 -0.61385685 0.26344723 0.13483237
0.31021765 -0.37993947 -0.5355811 -0.37016466 0.45486987 0.41542646 0.21078388 -0.41726896
0.24134588 -0.6582062 0.38003543 0.3379192 -0.2956485 0.5425078 -0.34045318 -0.08337114
-0.9969021 0.25165918 -0.15149948 0.08147497 0.9630688 -0.56887364 0.24243844 -0.12992023
-0.20155324 0.80085427 0.39117113 -0.022002572 -0.040228996 -0.0071192286 0.2629172 0.42158452
0.0901147 -0.4610073 -0.8722031 -0.2843933 0.87764364 0.13217479 0.31780124 0.6213563
0.14846773 -0.14348173 0.8228986 0.7144372 -0.2179243 0.3701962 -0.844039 -0.9678911

lstm.weight_hh_l1 f4 [128, 32]
00000000: 6ef1 11bf b88c 11bf 4bfb edbe 6fec 4ebe
00000010: cfdc bc3e b983 f9be bb1e c83a d8c7 9d3e
00000020: f99e 8b3e 9cc7 d5be 7fcb a23c c705 873e
00000030: f5a3 e6be f6aa 523f 5b16 20be c44b 123f
00000040: 6cf6 0bbf 63fa c0be e07d 18bf 2000 683f
00000050: 264d 513f acf8 44bf aba6 31be e950 483f
00000060: 2acb 3cbe da40 c83e 09e9 ca3e f1ff 1b3e
00000070: d28a 9a3e 1dbf 2f3f 0b1d 133f 3a66 be3e
00000080: bb7c 91be 2056 66bf ebb5 39bf 002e 24bf
00000090: f4b5 413d 27d5 62be d586 a63e b22d 8bbd
000000a0: dab3 50bf 735d 2bbf 84c5 613f 5f8a 4b3f
000000b0: eb23 5bbf 2303 ae3e e374 583f f727 fc3d
000000c0: 2598 77bf a410 89bf 37e9 93be 4a0e ca3e
000000d0: 6146 e53e 5610 41be d8f9 75bf 3cd7 983e
000000e0: 1360 33bf acb7 323f dc3c 823f 6da3 443f
000000f0: 506e 193f 2352 75bf 64ad 383f 6642 483f
00000100: 3168 b4bc 158c 703e 5ba3 c03e 26d3 073f
00000110: b67c 8fbf f0bd 323f cf06 8bbe b278 aabf
00000120: 4c6d 9b3e 8714 9e3e 075b 8ebd ac66 2bbf
00000130: dec5 a63e d2a5 83bf 1222 35bf a9f0 c6bc
00000140: 529d 7e3e 0afc 293f b43d 8c3e a25f 56be
00000150: 52c3 173e 8b6f 5dbe 0bd0 bb3e 6551 e43e
00000160: 5145 013f 6ca3 c53d b6fd 9bbe 8408 8b3e
00000170: 7f57 b4bd 0b0f bb3e 15fe f7be 38e6 04bf
00000180: 0e5c 963d 5481 703e 4aa0 fdbb 494d 003e
00000190: f2bb 66bf 8042 9cbd 7067 513e 8ca6 19bf
000001a0: 33bc 15bf a8d6 2f3e 7164 973e 0f27 213d
000001b0: 01d9 9c3e 5d99 7bbf 6d78 773e 73d7 aebe
000001c0: 7f36 b13e f588 06be 9207 273f d76b 92bf
000001d0: 59c1 99bf 3efc a73e fc58 82bb 944f 42bf
000001e0: 235e bbbd a690 303d 80ce 113d a2cc 70be
000001f0: ca7d a5be dfb3 4ebf 4188 92be 1bb7 853e
00000200: 1d6c 053f 346f 393f 7584 443f d4f4 6a3f
00000210: a31f dfbe bf4a 6d3f 5b19 d4be af30 05bf
00000220: 00bb f63e eab3 9e3f 1fa6 28bf b7be 3abf
00000230: 07a4 653f 9c43 a1be 8c50 62bf ec91 31bf
00000240: f703 653f cc0e 8c3f 9e9c 413f 49ee 0fbf
00000250: 397d eabe 9239 973d eb10 8e3f 1978 0a3f
00000260: 9fec 6f3f b383 18bf 6cb0 7cbf b051 51bf
00000270: ae2b 27bf 860f 2e3f 5a18 82bf 479c 45bf
00000280: 0f51 de3e 5e43 cbbe 99bb 41bf 6091 87bf
00000290: d5b6 073f 1c1c e9be d53d 72bf afc4 183f
000002a0: 144a 163f 4c32 40bf f6e7 09bf a41c 6b3f
000002b0: a507 39bf 1609 1bbf 98cf 3b3f 8b09 9abe
000002c0: ccd0 98be 0a6e f7be 4860 233f df3e 2dbf
000002d0: 54fb 8abe 99a7 613f 9106 3cbf bc39 38bf
000002e0: 0fac 8ebf c670 1dbf 9991 843f 40ff 06bf
000002f0: f529 b8be c56d 453f 9004 693e b495 873f
00000300: 583d cabe 2719 03bf d44b edbe a67e a8be
00000310: 290e ff3e debd 47bf f368 673e ffec 203f
00000320: 5e03 41be 499b b0be 92cd a73e 0df6 463e
00000330: c00e 18bf 26eb 813f c314 dc3e ff61 ad3e
00000340: 0f4d eabe e4fb 40bf d4b1 2abf 9912 873f
00000350: 3d04 523f eaba 36bf 9751 2bbe 417e a03e
00000360: 0c42 99be 8366 0d3f 0397 c13e 7420 f43e
00000370: 24e1 e33e fa70 0cbe a5e7 1e3f e8dc cc3e
00000380: 8e42 41bd 359f adbe 2faa 21bf d87b 3bbf
00000390: 40cc 733f 0be0 18bf ed2c fc3d 4d31 253f
000003a0: 7eb5 413f d7f7 29bf ad94 27bf 6897 323f
000003b0: 486e 4ebf 14bb 3f3f b4cc 513f d3b2 32ba
000003c0: 3e2e 0ebf 2464 16bf f9bf 443d 5b92 123f
000003d0: 8b64 103f 9de7 233c 1b2b 22bf c4f3 1b3e
000003e0: 5d3f 34bf a852 47bd 1633 243f bc71 08bf
000003f0: 308f b93c c073 803f adb1 453f 4df7 ce3e
-0.5700902 -0.56855345 -0.46480784 -0.2020738 0.36887214 -0.4873331 0.0015267947 0.3081653
0.27269724 -0.41753852 0.019872425 0.26371595 -0.45046964 0.82292116 -0.15633528 0.5714686
-0.54672885 -0.3769103 -0.5956707 0.9062519 0.81758344 -0.76941943 -0.17348735 0.7824846
-0.18436876 0.39111978 0.39630917 0.15234353 0.30184036 0.6865099 0.5746619 0.37187368
-0.28415474 -0.89975166 -0.7254321 -0.6413269 0.047292665 -0.22151624 0.32524744 -0.06795825
-0.8152443 -0.6693947 0.8819201 0.7950801 -0.8560168 0.33986768 0.84553355 0.1231231
-0.9671653 -1.0708203 -0.28888866 0.39464027 0.44780257 -0.18853888 -0.96084356 0.2985171
-0.7006847 0.6981151 1.0174823 0.7681187 0.5993395 -0.95828456 0.72139573 0.78226316
-0.022022339 0.23490937 0.3762463 0.5305656 -1.1209934 0.6982107 -0.27153632 -1.3318083
0.30356824 0.30875036 -0.06950956 -0.6695354 0.32572836 -1.0284979 -0.7075511 -0.024284678
0.248647 0.66400206 0.27390826 -0.20934919 0.14820603 -0.21624582 0.36682162 0.4459335
0.50496393 0.09650311 -0.30467004 0.27154934 -0.08805751 0.36534914 -0.48436037 -0.51913786
0.07341777 0.23486835 -0.007740055 0.12529482 -0.9013053 -0.07629871 0.20449615 -0.60019755
-0.58490294 0.17171729 0.29568818 0.03934389 0.3063431 -0.9828089 0.24167033 -0.3414875
0.3461189 -0.13138182 0.65245926 -1.143916 -1.201213 0.32809633 -0.003977893 -0.75902677
-0.091488145 0.043106697 0.035597324 -0.23515561 -0.32322532 -0.8074321 -0.28619578 0.2611626
0.5211809 0.7243531 0.76764613 0.9177983 -0.43578824 0.9269218 -0.41425595 -0.5202741
0.48189545 1.2398655 -0.6587848 -0.7294726 0.8970341 -0.31496894 -0.88404155 -0.69363284
0.89459175 1.0942016 0.75629604 -0.5622297 -0.45798662 0.073840275 1.1098913 0.54089504
0.9372043 -0.5957596 -0.987067 -0.8176527 -0.65301025 0.67992437 -1.0163682 -0.77191585
0.43421218 -0.39699835 -0.75676876 -1.059124 0.53013355 -0.45529258 -0.946256 0.59675115
0.58706784 -0.75076747 -0.5386957 0.9184058 -0.7227729 -0.6056074 0.7336364 -0.30085406
-0.298468 -0.4832614 0.6381879 -0.6767406 -0.27144873 0.8814636 -0.7344752 -0.71963096
-1.1146258 -0.61500204 1.0356933 -0.5273323 -0.3596951 0.7712062 0.22755647 1.0592561
-0.39499927 -0.51210254 -0.46346915 -0.32909125 0.4981549 -0.7802409 0.22598629 0.6286163
-0.1884894 -0.34493473 0.32774025 0.19429798 -0.59397507 1.0149887 0.4298459 0.33863828
-0.45761916 -0.75384355 -0.66677594 1.055255 0.8203772 -0.7137896 -0.16730343 0.31346324
-0.29933202 0.55234545 0.37810525 0.4768101 0.44507706 -0.13714972 0.6207221 0.40012288
-0.047182612 -0.33910528 -0.63150305 -0.73235846 0.95233536 -0.5971686 0.123132564 0.6452835
0.7566756 -0.663938 -0.65461236 0.6976228 -0.80637026 0.74894834 0.8195298 -0.0006816808
-0.5553931 -0.5874655 0.048034642 0.5725457 0.56403416 0.010003951 -0.63347024 0.15229708
-0.70409185 -0.04866281 0.6414045 -0.53298545 0.022651285 1.0035324 0.77224237 0.4042305

lstm.bias_ih_l1 f4 [128]
00000000: 11cb b4bc 0a2d b53e 2feb 09bf 3735 8f3e
00000010: 5cae 4abf da11 743f 2f42 4f3e 8a1c 783e
00000020: 397d 0fbe 1d43 433f ce34 323f 156e 3abf
00000030: 12f0 00bf 761f 8dbd 0cf1 523f e7d0 a6be
00000040: 6ea2 3abd a783 ae3c 0b76 aabe 7f72 41bf
00000050: 1f4a 4ebf cf65 52bf 59f8 1b3f 4aef 89bd
00000060: 6182 5e3f 66a8 14be 2269 103f 8c2c 3bbf
00000070: 144c 5cbf 2d3d cd3e 2235 a3be e187 603e
00000080: 6a8c 0dbf d6da 823f 00b0 acbe 3897 ddbd
00000090: d5a1 4fbf b280 773f 6f0d a2be 2c5c 973e
000000a0: 9a5a d43e 4921 113e f857 823e bfca 0cbf
000000b0: 278e 0ebf 764d 463e a4c9 293f e3d5 10bf
000000c0: d135 54bd 3e47 82be 8915 6dbf e044 82bf
000000d0: 1a32 59bf 56be 33bf 2d89 e03e 0cea c2be
000000e0: 8563 0a3f dad8 1ebf 477f f73e 8855 42bf
000000f0: e3a8 71bf daec 613d ce5e 38bf b22a b0be
00000100: abf8 20bb 3081 17bf f96c 58be 7098 0fbf
00000110: 3ed8 143e 7bcc 35bf 1160 833e e9fa 4f3f
00000120: 58fb 033f 7dee 6ebf 494e 133f 414e 8d3e
00000130: e1f9 3ebf 00d5 5b3f a6c2 893f f19b 4d3e
00000140: 45da 54bf c53c 39bf 4007 a83d 6bdb 013f
00000150: d6e5 063f 8a86 84be 9efb 70bf d89e 573e
00000160: 276b 57bf 136c 4e3e 7e58 773f dcc6 3d3e
00000170: f4bb 4f3e c0ed 77be a107 3b3f a30c e23e
00000180: 8045 e6be c8a5 0dbf 4cdb 16bf 2200 21bf
00000190: cf5a 27bf 11bf 09bf eed4 2b3c 9904 e63d
000001a0: 20a9 39be f6a8 1bbf e4ab f53e 478e cbbe
000001b0: 5b0f f4be 496a 4ebf 882b b7bd 24a5 6fbe
000001c0: e493 f2be 31b8 ccbe a364 26bf 4fb7 7cbf
000001d0: 91cb 43bf a6c7 5ebf d372 08bf 0284 dcbe
000001e0: ea20 febe 0ebb b4be 23b1 c5be b2a4 47bf
000001f0: 2b74 2fbf 4f36 763e c3bd e9be 7e47 34bf
-0.022069486 0.35385925 -0.53874487 0.27970287 -0.791723 0.9533974 0.20240091 0.24229637
-0.14012612 0.7627428 0.69611824 -0.7282422 -0.5036632 -0.06890766 0.8239906 -0.32581255
-0.04556506 0.021303011 -0.33293185 -0.7556533 -0.8058185 -0.821866 0.60925823 -0.06735094
0.8691769 -0.14517364 0.5641042 -0.7311485 -0.86053586 0.40085736 -0.31876475 0.21926834
-0.5529238 1.0223033 -0.33728027 -0.10819858 -0.8110631 0.9668075 -0.31650874 0.2956251
0.41475374 0.14172854 0.2545774 -0.54996866 -0.5568566 0.19365487 0.66323304 -0.56576365
-0.051809136 -0.25444978 -0.92610985 -1.0177269 -0.84842074 -0.70212305 0.43854657 -0.3806919
0.54058105 -0.6204964 0.48339292 -0.7591176 -0.94398326 0.05515752 -0.7201966 -0.34407574
-0.002456228 -0.591815 -0.2113532 -0.56091976 0.14535615 -0.7101514 0.2565923 0.81242234
0.51555395 -0.93332654 0.5754133 0.27598765 -0.74600035 0.8587189 1.0762527 0.20079018
-0.8314555 -0.7235835 0.08204508 0.5072543 0.5269445 -0.25883895 -0.9413394 0.21056688
-0.84147877 0.20158415 0.96619403 0.1853289 0.20286542 -0.24211788 0.73058516 0.44150266
-0.449749 -0.5533109 -0.5892837 -0.6289083 -0.6537294 -0.5380717 0.010487778 0.11231346
-0.18130922 -0.6080469 0.47982705 -0.39756986 -0.47667965 -0.8063093 -0.0894385 -0.2340284
-0.47378457 -0.39984277 -0.6499731 -0.98717207 -0.7648249 -0.8702339 -0.5330021 -0.43069464
-0.49634486 -0.3529896 -0.38611707 -0.7798568 -0.68536633 0.24044155 -0.4565259 -0.7042159

lstm.bias_hh_l1 f4 [128]
00000000: 7cce 8dbd cf80 163f 5a3a f5be 3d9e a23e
00000010: d26c 86bf e69e 793f 4c97 f83e 58b8 b93e
00000020: d8ba 1cbe ae5e 323f 0bf2 f53e daa1 07bf
00000030: c9ec bebe b2b6 943d ccaa 4d3f 3c10 9abe
00000040: ff58 4abe 49f8 bcbc 78ed e6be 692b 6cbf
00000050: ad61 61bf f3ff 3fbf b1f8 383f 01ee 33bd
00000060: 1911 383f 70b6 a6be 219c 0a3f c76d e9be
00000070: 0076 3ebf 5d37 473e 7cf9 99be 441a 9abd
00000080: c07e 15bf ff42 483f ad37 8abe 9a79 4bbe
00000090: b39d 4dbf 484f 493f a147 bcbe 3e3f a73e
000000a0: 0e32 9a3e 6806 bc3e a02d b33e 1531 22bf
000000b0: 1633 a5be 6b81 b8bd ef08 1f3f 4693 02bf
000000c0: f366 f53c 55be c6be f22b 76bf 61d4 4fbf
000000d0: 0f4e 3cbf 4342 48bf b03f 893e 0ff2 dbbe
000000e0: 4092 083f 5861 e9be a777 f33e 34fa 4fbf
000000f0: 630d 78bf 02d3 cb3d 9a58 2abf 7dc6 aebe
00000100: 70a9 16be 1146 1ebf fdfa 20be 5ab2 1fbf
00000110: f27c 4f3e 2eae 82bf 5feb 85bd 81c0 6f3f
00000120: 6d4f 9a3e 969b 1dbf afa6 333f 84c7 963d
00000130: 03db 58bf d52d 503f 38a6 693f 3741 ed3d
00000140: 9526 3bbf 78b1 28bf a7a8 15be 2545 093f
00000150: 0214 1c3f c6cb 4abe 4e6b 5ebf 5314 cc3d
00000160: e9e9 79bf 89e8 933d 57f3 703f ce96 a53e
00000170: d171 913e 8c77 b5be 7e53 573f cd91 b23e
00000180: fb69 69be 0848 1bbf 04f5 17bf cb95 0fbf
00000190: b4d8 58bf b0c2 10bf 2172 52bd 6cd4 20be
000001a0: 8f53 263d f743 f0be 7fe0 113f 09f8 eebe
000001b0: 9c5d 9cbe e51d 59bf d72d 94bc 18ee 83be
000001c0: 9840 17bf 47e8 c6be ab8e 1fbf b8ac 3ebf
000001d0: 34f1 43bf 94e1 77bf 5254 ffbe 84ff aebe
000001e0: 717c c9be e1c4 06bf daeb f7be da0a 01bf
000001f0: e406 43bf 7a9c 6c3d 5423 23bf a2e0 38bf
-0.069241494 0.58790296 -0.4789608 0.3176135 -1.0501959 0.97508085 0.4855293 0.36273456
-0.1530565 0.6967572 0.48036227 -0.5298134 -0.37290028 0.07261409 0.8033874 -0.3009051
-0.19760512 -0.02306761 -0.4510305 -0.9225374 -0.88039666 -0.7499992 0.7225447 -0.04392815
0.7190109 -0.32561064 0.54144484 -0.45591566 -0.74398804 0.19454713 -0.30073154 -0.07524541
-0.5839653 0.7822723 -0.26995602 -0.19870606 -0.80318755 0.786366 -0.367734 0.32665437
0.30116314 0.36723638 0.34995747 -0.63356143 -0.32265538 -0.090090595 0.62123007 -0.5100597
0.029956317 -0.38817087 -0.96160805 -0.8118344 -0.7355661 -0.7822611 0.26806402 -0.42958114
0.5334816 -0.4558208 0.47552225 -0.81241155 -0.96895427 0.09952356 -0.66541445 -0.3413581
-0.14713073 -0.6182566 -0.15720744 -0.6238152 0.20262507 -1.0209405 -0.06539034 0.9365311
0.30138722 -0.6156553 0.70176214 0.07362273 -0.84709185 0.81319934 0.91269255 0.11584704
-0.73105747 -0.65895796 -0.14615117 0.5362113 0.6096803 -0.19804296 -0.86882484 0.09964814
-0.97622544 0.07222087 0.9412131 0.32341617 0.28407148 -0.3544277 0.84111774 0.34876862
-0.22794335 -0.60656786 -0.5935824 -0.5608794 -0.8470566 -0.5654707 -0.051378373 -0.15706033
0.04060703 -0.46926853 0.5698318 -0.4667361 -0.30540168 -0.8481124 -0.018088264 -0.2576759
-0.5908294 -0.3884909 -0.6232707 -0.744823 -0.7653992 -0.9682858 -0.4986902 -0.34179318
-0.39352754 -0.52644163 -0.48422128 -0.50407183 -0.7618239 0.057766415 -0.6372578 -0.7221776

fc.weight f4 [1, 32]
00000000: 7f47 7f3c f2b5 d33e 787d a63e 337e 983e
00000010: a212 a93e 8ed9 c73e 6833 d33d f447 4a3e
00000020: 0c19 abbe deac b43e 924b c03e 07b3 99be
00000030: e967 a43e 94df 3c3e e869 92be 4f36 833c
00000040: dcee b13e a0a6 d03e 2cd5 f4be 9eac 7b3e
00000050: c05e bc3e 28dc 8cbe 76a1 953e 731d 8a3d
00000060: b9aa 9f3e a169 633d 16d1 afbe 141d 7b3d
00000070: 8208 123e ab8a a6be e180 afbe 9105 d2be
0.015581011 0.4134975 0.325176 0.29783782 0.33022028 0.3903317 0.10312539 0.1975401
-0.33417547 0.35288137 0.37557656 -0.300194 0.32110527 0.18444663 -0.28596425 0.016017107
0.34752548 0.40752125 -0.47818887 0.24577567 0.3679104 -0.27511716 0.29224747 0.06743898
0.3118494 0.055520657 -0.34339207 0.061307028 0.14261058 -0.3252767 -0.34278014 -0.41019872
