airflow/dags/ts_model/weight/lstm_model.pth (torch, 167896 bytes, 5 tensors)

lstm.weight_ih_l0 f4 [400, 1]
00000000: 86a8 94be c504 15bf 3a57 d8bf 8582 cfbe
00000010: 8ed8 30bf 9c4e 5d3e 5c20 e9bd 39a1 e0bf
00000020: 701d b0be 2768 1fbf 1483 6ebf 6546 a3bf
00000030: 5154 37be 516d 13bf fdeb 4ebf 36eb 1cbe
00000040: f960 90be 2fad 18bf 481b 293f fda1 c0bf
00000050: 38f8 a0bd 82cf 4abf f391 4fbf 1c4c 6bbe
00000060: 4145 80bf f53e 6bbf 85a4 b53e 700d 84bf
00000070: e7f4 00c0 25e7 0abe 9e3b 8dbf 2554 babf
00000080: 5812 0fbf cfb8 ecbf c655 4fbf 7d8f 0fbe
00000090: 9cf8 b2bf fb36 f93c 7f6c 16bf b627 e7bf
000000a0: 646c 6ebf d01c 18be 2714 303f a73d 7abe
000000b0: ac83 acbe 0242 1fbf 9b1e b43d 8b20 a2bf
000000c0: 7704 8cbe 3d29 c7be fe91 693e 1eac f53e
000000d0: ee2f 86bf 2737 903d f927 69bf f8b9 03bf
000000e0: 765f 72bf aa92 723e 1ec9 96be 741a 29bf
000000f0: 0147 0abe 5410 adbe eb37 53be 2873 92be
00000100: b8bd b6bf 5c71 c6bd 4424 bdbe 0054 cebd
00000110: 2857 823b 9db5 eebe 8f28 c8be 1e65 91bc
00000120: 0b0e a5bd 0149 d6bf bba0 25be 3458 12be
00000130: 66f9 e9bd 210f b03d 7ddf dfbf 8a1f efbd
00000140: db4d 14bf d986 193f 0610 c2bf 92d1 f4be
00000150: aed3 b6be 9a0d 7f3f efa0 d2be b0fe bc3d
00000160: 3849 b6bf 0277 a73d 4aca a3be cec1 97bf
00000170: 67ca 06bf b0bf 443d 6662 54bd 21b4 29bf
00000180: 1b23 80bf e86b 2f3e deac 6abe 1aa1 b83e
00000190: c967 633e 082f 31be 9ea7 87bf c80b 9dbe
000001a0: 3ebd ebbe 2c0a cc3d ee1b e2bd c96c 8ebf
000001b0: 29eb aa3f a141 5fbe 3a1e 93bf 7611 99bf
000001c0: 2dda fe3e 4d2c 313e 393e 06bf a6b8 a03f
000001d0: cee2 f9be abda 5fbe 5d37 0c3f 7215 a6bf
000001e0: b4b0 be3d a583 c2be 9c1d e2be edd2 03bf
000001f0: 56fa f8be 8b2d 6bbf 8ed9 083f a357 83be
00000200: 906b 76bf 321e 3fbe 91e5 87bf 2be5 67bf
00000210: 0bd7 9dbe 2bfa a0bf ce62 b8be d2d7 c9bf
00000220: 3633 50bf c8ae 0bbf 569b ecbe f94f c8bf
00000230: 1e8a c2be c3be 843c f2ba 103f e49b 0d3f
00000240: a9a1 edbd 24c6 acbe eb7b bfbe bf1e 79bf
00000250: 4b57 0b3d ee0b 51be 769f 64bd 55ea 89be
00000260: 7f25 85bf 621d 65be 2745 a4bf f255 9a3f
00000270: 7264 01bf e4b9 35bd 5f30 a43f 3c21 b0be
00000280: 7680 843e eabe cf3e e82b 113e f4f4 57bd
00000290: 98c2 62bf f3d1 b6be 83c1 d4bd 47c1 493e
000002a0: 2133 873e c99c a2bd c237 adbe 2c60 803f
000002b0: 7265 8cbc a5e2 94bf 44f2 a83e d4bb 0d3e
000002c0: fdd4 973e 2947 91be c707 84bf 3590 f5bd
000002d0: a303 19bf d426 abbe 09fc 70bf 7a01 9c3f
000002e0: fbf0 2a3f 16ca 383e 248d 233f a99f 9bbf
000002f0: d649 89bf 3a66 adbe d0a2 76be c6f1 62bf
00000300: 8dba f5bc 21d0 33bf e092 62be 6fb4 e3be
00000310: a54d 1abf e8e1 353e 1d13 163f f091 383f
00000320: 0958 4a3f fa06 283f 6400 733f f721 3cbe
00000330: e267 1fbf 494a 87bf ad46 813f 80e6 4e3f
00000340: a1f2 933f 93a5 05bf c288 633f 6a02 81bf
00000350: 84ba 893f 0636 853f c4e6 c6be fa2b 8e3f
00000360: 64b3 47bf 4fec c8be 0fea aebf 8a57 5a3f
00000370: 9f53 68bf 3dcb c13e c190 ed3e 4e60 46bf
00000380: 61ba df3e b084 04bf 6c13 8dbf 5f3c 45bf
00000390: 52e8 69bf d6fe 3abf c795 3ebf 3cf6 54bf
000003a0: 5f59 033f 004f 4f3f bc6c c2be 0f31 8bbf
000003b0: e477 4abf 1d67 7dbf c19c 273e 7ff1 493f
000003c0: ea90 c53e c1ae 533f 71c2 bebf 30cf 80bf
000003d0: ffe4 843f 7f4d 69be ae31 7ebf 5f3e 55bf
000003e0: 3809 79bf 0ddb 5e3f ea2b a9bf 7df9 a2bf
000003f0: 2b8a 2fbf e3fc 7f3f a4bf 903f f1a7 97bf
-0.29034823 -0.582104 -1.690162 -0.40529266 -0.69080436 0.21612018 -0.11383125 -1.7549201
-0.3439746 -0.622683 -0.9316876 -1.2755858 -0.17903258 -0.5758868 -0.8082884 -0.15324101
-0.28198984 -0.5963926 0.6605725 -1.5049435 -0.07859844 -0.7922288 -0.81082076 -0.22978252
-1.0021135 -0.9189294 0.3547708 -1.0316601 -2.0149477 -0.13564737 -1.1033819 -1.4556929
-0.55887365 -1.8493899 -0.80990255 -0.1401958 -1.398212 0.030421725 -0.587593 -1.8058994
-0.9313414 -0.14854741 0.6878075 -0.24437581 -0.33694208 -0.62210095 0.087949 -1.2666181
-0.27347156 -0.3889865 0.22809598 0.47982877 -1.0483377 0.070417695 -0.9107662 -0.5145564
-0.9467691 0.2368876 -0.29450315 -0.6605599 -0.13503648 -0.3380152 -0.206268 -0.28603482
-1.4276648 -0.0968959 -0.3694173 -0.100746155 0.003977675 -0.46622935 -0.39093444 -0.017748412
-0.08059319 -1.6741029 -0.16174595 -0.1429146 -0.11424522 0.085966356 -1.7490078 -0.116759375
-0.579313 0.59971386 -1.516114 -0.4781614 -0.35708374 0.9963013 -0.41138408 0.09228265
-1.4241095 0.08176996 -0.31990272 -1.185602 -0.5265259 0.04803437 -0.051851653 -0.6629048
-1.0010713 0.17131007 -0.22917506 0.3606041 0.2220756 -0.17303097 -1.0598028 -0.3067305
-0.46042818 0.09962878 -0.110404834 -1.1126949 1.3353015 -0.21802379 -1.14936 -1.1958454
0.4977583 0.17302056 -0.52438694 1.255635 -0.4880585 -0.21860759 0.5477198 -1.2975295
0.09311047 -0.37991062 -0.44163215 -0.5149372 -0.4862849 -0.9186637 0.5345696 -0.256528
-0.9625788 -0.18663862 -1.0616933 -0.9058406 -0.30828127 -1.2576345 -0.36012882 -1.5768988
-0.8132814 -0.5456357 -0.46212262 -1.5649406 -0.37996 0.016204244 0.56535256 0.55315995
-0.116031 -0.3374492 -0.3739923 -0.9731254 0.034018796 -0.20414707 -0.055816136 -0.26936594
-1.0402068 -0.2237449 -1.2833604 1.2057478 -0.5054389 -0.044366732 1.2827262 -0.34400356
0.25879258 0.40575343 0.14176905 -0.05272384 -0.88578176 -0.35707054 -0.10388472 0.19702636
0.26406196 -0.07940061 -0.33831602 1.0029349 -0.017138217 -1.1631666 0.32997334 0.13841182
0.29654685 -0.28374603 -1.0314873 -0.11990396 -0.59771174 -0.3342806 -0.94134575 1.2187951
0.66773957 0.1804584 0.6388724 -1.21581 -1.0725658 -0.33867055 -0.24085546 -0.88650167
-0.02999618 -0.70239455 -0.22126341 -0.44473597 -0.60274726 0.17761958 0.58622915 0.7209768
0.7904058 0.65635645 0.9492247 -0.18372332 -0.6226789 -1.0569545 1.0099694 0.80820465
1.155842 -0.5220577 0.8888055 -1.0078862 1.0760045 1.0407112 -0.38847935 1.110717
-0.78008103 -0.3924279 -1.3665179 0.85289824 -0.90752596 0.3785037 0.463995 -0.774907
0.43696883 -0.51764965 -1.1021552 -0.77045244 -0.9137012 -0.730451 -0.7444729 -0.83188224
0.51308244 0.8097992 -0.37973583 -1.0874346 -0.7908919 -0.98985463 0.1636839 0.7888412
0.38587123 0.8268853 -1.4903089 -1.0063229 1.0382384 -0.22783469 -0.99294555 -0.83298296
-0.9727969 0.87052995 -1.3216527 -1.2732388 -0.685702 0.9999525 1.1308484 -1.1848127

lstm.weight_hh_l0 f4 [400, 100]
00000000: c38c 423e c2c0 673e 87ce 7e3e 736a 1c3e
00000010: 38c4 5dbd e73d 293e 01f1 1c3e b7c1 75bd
00000020: d4e0 4ebe eaaf cdbc 2152 9b3c af60 7f3d
00000030: 3adb e53e 8d25 59bd 3e2c 4abe bd2c 8fbe
00000040: b88e 9fbe 30cd 663d 76ea 81be 2d37 0d3d
00000050: 9a68 b7bd 83b9 4abd b827 f63c c56c 9ebd
00000060: 0069 093e 8509 c6bd 6221 1ebe 254e dbbd
00000070: 0bb2 c2be 3dd4 05be 415e c8bd 3c33 c5be
00000080: 1533 2abd a285 a73d 6e80 f0bc 49a1 58bf
00000090: 8fb4 a0bd 6974 1bbe aa63 b53d a3ca 133d
000000a0: 5637 633e 23ac 2d3e 09ad 07be 9293 77bd
000000b0: 6465 5f3d 07ca 8f3d be3d a6bd eeb6 18be
000000c0: f640 b1bd 893a 193f 29f8 a1be 6d1a 13be
000000d0: 4d79 823d f72d 1b3e a654 393e d091 c53e
000000e0: 78cf 943e 3295 043e d111 d73c bd79 cebd
000000f0: 4c20 cc3d 6a34 03bf 723f e33e 7f40 e73c
00000100: aad5 243e bde4 3abe 248e 17be 9369 05bd
00000110: d076 d3be 27c3 7cbd 6949 883d 7311 77be
00000120: 23c6 133e b0db 89bc 312e d8bd 075d c03d
00000130: ecab b9bd 5954 65bd e7d8 2f3e c214 98bb
00000140: f4a9 f63c c0d8 fb3d 7872 80be 1b80 343f
00000150: 547d 6fbd b6af e1be a057 5dbf c2d3 91be
00000160: 39d0 153e 50d3 193e 8fa2 543c 40d1 103e
00000170: 1a8f a1bd 7512 a6bd faa2 473e 065a 413d
00000180: b694 60be d8cd 06bd 5600 213d b93b 97bd
00000190: 228b a83d 3ca3 8cbe c222 6c3e 26e9 ee3d
000001a0: e7fa 193d a5f1 53bd b662 933e aa77 613e
000001b0: 3e88 71be 3c84 5ebe 7911 dc3d a709 96ba
000001c0: f315 073f 495f c63c 1b30 a5bd d6f9 a4be
000001d0: 3f30 80be b88d 863c 2244 2fbf e56b aabd
000001e0: 2ec7 1dbe baed b93d d23f 873d cb57 de3d
000001f0: 6069 523c da21 35be f075 b4be 7be6 39bd
00000200: 587c 9dbd 46ea 643e 537f fbbd c13b 81be
00000210: 76c9 163c debf ae3c 8081 c6bc 30b8 41bf
00000220: 6f38 05be 9b46 4bbe f800 1d3e 3afa 9d3d
00000230: 0527 953d 609c 0e3d c3c5 0fbf dd12 a33d
00000240: c5cc fcbd 6021 a73d e70e 00be f317 eabd
00000250: 7cab 043c c982 093f 453a 2ebf 157d e4be
00000260: 74ec 82bc ef64 733e b658 103d e139 7b3e
00000270: 3fb4 ec3d ef58 70bd 0706 9d3c c8ea d5bd
00000280: a8e8 15bc 84c6 4abf 2e76 d33e 637a 70bd
00000290: 8931 663e c0a6 48be 6feb 7c3d 3285 503e
000002a0: 9cb3 f0be 9e2e e6bb 8211 153d cdda ddbe
000002b0: 8089 3abe 5272 dfbd a38e 123e b3dd 97bc
000002c0: 991e 3fbd 9e25 c23d 55e0 3cbe 8223 66be
000002d0: b355 9dbc 37e6 af3e 5dcd 1fbd 9b66 f03e
000002e0: 573c 2a3e 317d 53bf 701d 8abf 225d 20be
000002f0: 3c83 213e 20e6 e9bd 0b24 92bd e7ae fd3d
00000300: 2af8 313e 60d7 62bb 2ddc 133e 7407 5cbd
00000310: a444 3fbd 85d8 06bf f1e0 613e c6a8 7f3d
00000320: 5366 93bd 7444 dc3d 8d73 8a3d 6933 b93c
00000330: cc93 223e 44fe 04bc d266 dd3e 3ce7 37bd
00000340: 51f8 06be 4efe a53d c291 0e3b a19d a5bd
00000350: a775 3e3f d3ee 013c fc7b 12bd 5cd8 6abe
00000360: e78b 6bbe 8020 2d3d 1a4e 49bf a6de 94bb
00000370: 7cf6 d3be 2a98 303e 19df bdbd 0f4c a9be
00000380: 3e8d b93c e7b4 6cbd 257c 05bf 641d 56bb
00000390: e164 813e 7844 34be 6c21 93be 754f 673e
000003a0: 774c 59bd 5637 8cbe cef7 993d fd10 8ebf
000003b0: dd58 04bb 2bda cdbe 8ea4 39be b5df 09bc
000003c0: 9440 423d 7d3c 113e 2a1e 8fbf 5534 92bd
000003d0: 0389 8abd 7469 a13d a2ca d0be c841 323e
000003e0: f897 8abe 8c0b 283f 2d55 1dbf 2954 89bf
000003f0: c63d 843d 423a 143f 160b 1b3e 760b b8bd
0.18999009 0.22632125 0.24883471 0.15274982 -0.054142207 0.1652752 0.1532631 -0.059999194
-0.20202953 -0.025108296 0.01896006 0.062348064 0.4489382 -0.053014327 -0.1974344 -0.2796382
-0.31163573 0.056348026 -0.25374192 0.034476448 -0.08955498 -0.049493324 0.030048236 -0.0773559
0.1341896 -0.096697845 -0.15442422 -0.10708264 -0.3802646 -0.13069244 -0.097836025 -0.3851565
-0.041552622 0.08179785 -0.029358115 -0.846211 -0.07846939 -0.15181126 0.088569 0.03608192
0.22189078 0.16960196 -0.13249601 -0.06044347 0.054540053 0.070209555 -0.08117245 -0.14913532
-0.086549684 0.5985494 -0.31634644 -0.1436555 0.063707925 0.15154253 0.18098697 0.3858781
0.29064536 0.12947538 0.026253613 -0.100818135 0.09967098 -0.5125185 0.44384342 0.028228996
0.16097131 -0.18251319 -0.14800316 -0.032571387 -0.41301584 -0.06170955 0.06654627 -0.2412775
0.14431052 -0.016828388 -0.10555685 0.093927436 -0.090659946 -0.055988643 0.17172585 -0.0046411464
0.030110337 0.12297201 -0.25087333 0.70507973 -0.05846913 -0.4407937 -0.8646183 -0.2848187
0.14630212 0.15022016 0.01297821 0.14142323 -0.078886226 -0.08108989 0.19495764 0.047204994
-0.21931729 -0.03291115 0.03930696 -0.07384438 0.082296625 -0.27468288 0.23060134 0.11665563
0.037592795 -0.051744122 0.28786248 0.22018304 -0.23587129 -0.21730131 0.1074552 -0.0011446968
0.52767867 0.024215357 -0.08065816 -0.3222186 -0.2503681 0.016424999 -0.6846334 -0.083213605
-0.15408012 0.09078546 0.0660397 0.10856589 0.012842506 -0.17688695 -0.3524623 -0.04538582
-0.07689732 0.22354993 -0.122801445 -0.252409 0.0092033055 0.021331724 -0.024231672 -0.7567167
-0.13009809 -0.19851153 0.15332401 0.077137426 0.07282833 0.0348171 -0.56161135 0.07962582
-0.12343744 0.08160663 -0.12505685 -0.11430349 0.008097526 0.5371519 -0.6805766 -0.4462668
-0.01598189 0.23768972 0.03524085 0.24533798 0.11557817 -0.058678564 0.019167913 -0.104451716
-0.009149708 -0.7920916 0.413011 -0.058710467 0.22479834 -0.1959486 0.061747964 0.2036331
-0.4701203 -0.0070246 0.03639365 -0.43330994 -0.18216515 -0.10910477 0.14312224 -0.018538332
-0.04666004 0.09479831 -0.18444951 -0.22474483 -0.019205904 0.34355327 -0.03901421 0.46953282
0.1662458 -0.826129 -1.0790234 -0.15660527 0.15772718 -0.11420846 -0.07135781 0.123868756
0.17379823 -0.0034613237 0.14439459 -0.053718045 -0.04669632 -0.5267413 0.22058465 0.062416814
-0.07197251 0.10755244 0.06760321 0.022607522 0.15876693 -0.008117262 0.43242508 -0.044898257
-0.13180663 0.081051454 0.002175436 -0.08086706 0.74398273 0.007930475 -0.035762772 -0.22934097
-0.23002587 0.042267323 -0.786348 -0.0045431433 -0.4139899 0.17245546 -0.09271068 -0.3306584
0.022650357 -0.05778971 -0.52142555 -0.0032671327 0.25272277 -0.17604244 -0.28736436 0.22588904
-0.05305144 -0.27385968 0.07517968 -1.1098934 -0.0020194568 -0.4020551 -0.18129179 -0.008415152
0.047424868 0.1418323 -1.118108 -0.07138888 -0.06764414 0.07881442 -0.40779597 0.17407906
-0.27069068 0.6564262 -0.6145809 -1.0728809 0.06457095 0.57901394 0.15140948 -0.08986561

lstm.bias_ih_l0 f4 [400]
00000000: 989e 04c0 8acc 07c0 5d3d 32bf 3c4b 2dc0
00000010: 64f5 03c0 5e09 60bf c855 8dbf 10a6 99bf
00000020: a65d 18bf 56ea 0ac0 d12e 88bf 1b47 82bf
00000030: 3d7c 13bf 4f43 29bf 43f7 1dc0 0b48 04bf
00000040: b7ab e8bf 9755 0cc0 3f78 53bd 7c32 b1bf
00000050: c5f8 99bf 4ac2 28c0 d438 14c0 de90 04c0
00000060: 7383 18c0 750e 0dc0 028a b5bd e51c d0bf
00000070: f175 8dbf 74e1 01c0 a898 a4bf c9d5 8cbf
00000080: 9cc5 20c0 905c debf 2d36 21c0 c5af b9be
00000090: e1f0 debf 90bd 8abf 5c7e 29c0 6a22 5ebf
000000a0: bcd2 1ec0 fa1c d7bf 5a93 b73e 6036 88bf
000000b0: 6893 84bf e61c 33c0 ab28 5ebf 5d0d d8bf
000000c0: 069c 9bbf f1d3 a3bf dfb2 2dbe d617 5c3e
000000d0: 5a0f e2bf 0d43 9abf db43 e7be 3d7f cebe
000000e0: 69ea a5bf 6d2c 17bf 722a ffbe 9b17 a7bf
000000f0: 690d 7fbf 7e29 10bf 7e61 80bf 8491 01c0
00000100: 24c4 75bf 6d98 d3bf c0fc 00c0 386a b6bf
00000110: d50f c6be e607 14c0 7750 2dc0 265b 25be
00000120: c20d e2bf c746 85bf 87f3 87bf 999d 7cbf
00000130: 1ba2 94bf 8cef 91bf 69ef 8dbf e62e 0ec0
00000140: cd84 2cc0 e32b 3fbf 7450 d7bf 9791 cebe
00000150: 5f13 81bf 93a4 34be 20b5 34bf e991 67bf
00000160: 139c 48bf 8ecb b6bf f6ad 1bc0 b8bf f7bf
00000170: 98dc febf 91fa d9bf 234d 9abf ad7d 03c0
00000180: 43cb f7bf dedb 70be 897d 35bf f963 eebe
00000190: 9967 a3bf b2f2 79bf 013c 32bf 9b1e bdbf
000001a0: fafa cebf 4459 f2be c277 0bbe e2de 8ebf
000001b0: 45ba c1bd d7de d6bf 39d1 8fbf d277 98bf
000001c0: 96df 8fba 4646 c4bf 90ba d0bf 72b4 e4bd
000001d0: e1b1 abbe b4e7 8abf dce0 9c3e fc8a 92bf
000001e0: 1493 b7be 7a65 b4bf 4500 cfbf 4ba5 dcbe
000001f0: ce9d cbbf 1763 b3bf 6b66 a0be 0116 d9bf
00000200: f8c5 86bf 4546 4ebf 0550 39bf 1029 29bf
00000210: 6af5 d4bf 6c0e 88bf b553 cebf d88a ebbd
00000220: b6b6 b9bf ed64 bbbe 0cb6 9fbf 3fdb 8bbf
00000230: e264 b7bf b65e 10bf fb08 b03e dd2d 8fbe
00000240: e7a9 09bf 44cf bcbf 5d62 edbe c688 70bf
00000250: 0445 dcbe fdfc 7fbe f863 a7bd db17 2e3d
00000260: 82fa c1bf b28c bdbe 5a29 a4bf bd08 743c
00000270: 2be7 edbf bfdc debe cbbc 22bd 0d4c 4cbf
00000280: 5e14 79be d9db 23be 26df 36be 835e 43bf
00000290: 72ba 45bf 686c adbe bce0 49bf 0d20 e3be
000002a0: 0178 9bbe 9210 dfbf c7df b8bf 85ad 8abe
000002b0: ab88 39bf 0e9e 78bf 9d8c 04bf 0487 c4be
000002c0: d4c4 dcbe 7147 d8be b608 9dbf fab3 8cbf
000002d0: b19c b7bf 42e8 8bbf bfc0 b3bf f813 113d
000002e0: b38c cebe 23d1 59bf 241f 65bd d0dd a8be
000002f0: c524 a8bf 96a6 28bf 916e 85bf dcfd afbf
00000300: f670 88bf 1a30 07bf 88d8 c7be a8a0 d3bf
00000310: 577f 81bf 8d90 b2be 6425 c1be 2ee0 92be
00000320: 6934 30be 4788 d3bd 9396 acbe a0cc 713c
00000330: 2d6f d63d 9688 4f3e 7c21 20be b8bf 8fbe
00000340: 891c 63be 18d0 173e bf3c 17be 7ac1 4f3e
00000350: 4619 25be 7d2b 48be a510 b63d e711 1dbe
00000360: 043f d23d 91dc 023e db76 c83e cceb 66be
00000370: db3f 1a3e 2d29 04bd a968 d8bd 044c 293e
00000380: efac 98bd c8d2 133e 1c6c 2e3e 7083 5a3d
00000390: 5cd3 f83e 118e 103e 130e e93d 21cb 963e
000003a0: 589b 13be 3748 0dbf 8115 d1bb d792 343d
000003b0: 3cf1 423e d699 5d3e d443 89bd 7bfe c3be
000003c0: 5686 1dbd f82c 49be 6ce3 b23e 9c39 413e
000003d0: 7161 05be ee7b 4aba a505 0f3e 994e a83e
000003e0: 2e5b 763e 7519 29be 5594 8a3e 4afa e03d
000003f0: 8e79 433d cd9c 3bbe 0f02 40be 3a86 253e
-2.0721798 -2.121859 -0.6962488 -2.707717 -2.0618525 -0.87514293 -1.1041803 -1.2003803
-0.59517896 -2.1705527 -1.0639287 -1.017795 -0.5761145 -0.6611833 -2.4682167 -0.5167243
-1.8177403 -2.192724 -0.051628347 -1.3843532 -1.2029043 -2.6368585 -2.3159685 -2.071342
-2.383023 -2.2040074 -0.088642135 -1.6258818 -1.1051618 -2.0293856 -1.2859087 -1.1002742
-2.512061 -1.7371998 -2.5189316 -0.36266914 -1.741726 -1.08391 -2.6483374 -0.8677126
-2.4816122 -1.6805718 0.35854608 -1.0641594 -1.0357485 -2.7986388 -0.86780804 -1.6879078
-1.215699 -1.2799054 -0.16962765 0.21493468 -1.7660935 -1.2051712 -0.45168957 -0.4033145
-1.2962161 -0.59052163 -0.4983707 -1.3054079 -0.9962984 -0.5631331 -1.0029752 -2.0245066
-0.9600241 -1.6530892 -2.0154266 -1.4251165 -0.38683954 -2.312982 -2.7080362 -0.16148052
-1.7660449 -1.0412225 -1.0621194 -0.98677975 -1.1611971 -1.1401229 -1.1088687 -2.2216125
-2.6956055 -0.7467634 -1.6821427 -0.4034545 -1.0084037 -0.17640905 -0.70588875 -0.90457016
-0.7836315 -1.428087 -2.4324927 -1.9355383 -1.991107 -1.7029592 -1.205479 -2.0545456
-1.9358906 -0.23521373 -0.70894676 -0.46560648 -1.276599 -0.9763595 -0.6962281 -1.4774965
-1.6170342 -0.4733373 -0.13619903 -1.1161768 -0.09459356 -1.6786755 -1.1235725 -1.1911566
-0.0010976668 -1.5333946 -1.6306934 -0.1116723 -0.33534148 -1.085196 0.30640304 -1.1448665
-0.358544 -1.4093468 -1.6171957 -0.4309486 -1.5907533 -1.4014615 -0.3132814 -1.695984
-1.0529165 -0.8057597 -0.72387725 -0.6607828 -1.6637394 -1.0629401 -1.6119295 -0.11501092
-1.4508884 -0.36600438 -1.2477431 -1.0926284 -1.4327662 -0.5639452 0.34381852 -0.27964678
-0.53774875 -1.4750752 -0.46364108 -0.939587 -0.43021405 -0.24998851 -0.081733644 0.04250322
-1.5154574 -0.37021405 -1.282512 0.0148946615 -1.8586172 -0.4352779 -0.03973083 -0.79803544
-0.24324176 -0.16001834 -0.17858562 -0.7631609 -0.7723762 -0.3387177 -0.7885854 -0.4436039
-0.30364993 -1.7426932 -1.4443291 -0.2708551 -0.72474164 -0.9711617 -0.5177706 -0.3838426
-0.43118918 -0.42242005 -1.2268283 -1.0992424 -1.4344693 -1.0930254 -1.4043196 0.035419434
-0.4034172 -0.8508474 -0.0559379 -0.3298173 -1.3136221 -0.6587919 -1.0424367 -1.3749347
-1.0659473 -0.5280777 -0.39032388 -1.6533403 -1.0116986 -0.34875908 -0.3772384 -0.2868666
-0.17207493 -0.10328727 -0.3370863 0.014758259 0.10470424 0.20266947 -0.15637773 -0.28075957
-0.22178854 0.14825475 -0.14769267 0.20288649 -0.16122922 -0.1954784 0.088898934 -0.1533886
0.102659255 0.12779452 0.3915318 -0.22550887 0.15063421 -0.03226583 -0.10566837 0.16532904
-0.074548595 0.14435875 0.17033428 0.053348005 0.48598754 0.14116694 0.113796376 0.2945185
-0.14414728 -0.55188316 -0.0063807373 0.04408535 0.19037336 0.21640715 -0.0670239 -0.3828009
-0.03845819 -0.1964606 0.34939134 0.18869632 -0.13025452 -0.00077241554 0.13966997 0.32872465
0.2405822 -0.16513617 0.27066293 0.10985239 0.047723345 -0.18321534 -0.18750785 0.16164485

lstm.bias_hh_l0 f4 [400]
00000000: 458b 02c0 908e 06c0 65e6 1ebf a823 36c0
00000010: 6f3b 0ac0 06c6 77bf b86e 82bf c6b2 96bf
00000020: 6009 1bbf 3aab 12c0 697e 91bf a878 94bf
00000030: 9117 3fbf c300 08bf e5b2 20c0 9308 02bf
00000040: 0de9 dbbf 8dd1 0ec0 0df8 69bd 185b b0bf
00000050: 8baa 87bf bc76 28c0 f61a 1fc0 e061 f7bf
00000060: 39fe 21c0 551b 04c0 fec2 99bd 73eb bfbf
00000070: 7543 8ebf e27d 01c0 d438 a6bf 1726 7dbf
00000080: de2e 18c0 6c50 d7bf f51d 1bc0 0b09 c7be
00000090: c758 e6bf c07f 7fbf b6d5 27c0 68c9 4cbf
000000a0: ff3f 26c0 8841 ddbf 3532 413e b08a 8abf
000000b0: 925f 8abf 80bf 29c0 90e7 7fbf 7f56 c9bf
000000c0: 048f 9cbf 8f8c 99bf 48f4 0abe dc2f 603e
000000d0: ce80 e0bf 373c 89bf bf4d c7be 05dc bbbe
000000e0: 0f1d a6bf 8d61 06bf 7b80 dabe edbd 98bf
000000f0: 2b94 78bf fec9 efbe 6030 7abf 6153 f1bf
00000100: 8a35 80bf fdd7 d1bf 1f3a 04c0 5ab5 9dbf
00000110: ab2b c8be 020b 10c0 833c 30c0 f8b4 78be
00000120: f49f f5bf a5b7 83bf e1b3 8fbf ecea 76bf
00000130: 954d 8ebf a80f a6bf 20fd 81bf 1685 0bc0
00000140: e51e 28c0 59d8 49bf 1022 c5bf e72a a2be
00000150: d45a 85bf 61ed 83be 9c2a 50bf 8b87 7ebf
00000160: 9d00 60bf 82b2 b4bf 48c5 0fc0 6358 00c0
00000170: d441 febf f9ed d7bf 9f6b 8fbf 8d92 06c0
00000180: 4853 00c0 3495 54be af45 4dbf b3b9 ebbe
00000190: 0b51 aebf 2ca2 80bf 15b2 35bf b101 babf
000001a0: 8a89 e2bf 57b4 00bf 1a53 0bbe d6fa 87bf
000001b0: a2b9 e43c d320 d2bf a3c0 9ebf b865 98bf
000001c0: de6f 11be cebb d0bf 6eb3 cbbf b976 06be
000001d0: 9525 e4be 7228 99bf 6e96 943e 82c5 9bbf
000001e0: 37cd 05bf a20a cdbf 8d43 d9bf bb97 c2be
000001f0: 7e63 cdbf 6539 a9bf 75b1 73be 5185 debf
00000200: eeec 80bf 0bdd 61bf 9da9 0ebf 8d43 fabe
00000210: 16f7 d0bf 246b 8cbf 0b7b c5bf 1507 30be
00000220: d09c bbbf 3d00 f4be 23a0 aabf 8932 84bf
00000230: 6e8b cbbf 50bd 33bf 80cc 673e 0b01 efbe
00000240: a557 12bf 13d5 bdbf 4d19 a8be 5e56 6bbf
00000250: 181c 14bf 1e13 d2be 607c 1b3c 8cb6 5bbc
00000260: 347a babf 9880 bbbe 1e74 a7bf 9d7f f53d
00000270: a3a7 f1bf 259b 0ebf 618f 163d 319d 71bf
00000280: 547e 91be 33a7 53be a82a 46be 6739 3cbf
00000290: f815 5dbf d010 8cbe 82d8 4bbf 464c 0abf
000002a0: 2f8e 9ebe b02c e3bf 4ddb babf 0916 a9be
000002b0: c980 2abf d24a 8dbf d8c4 d9be 9a44 4abe
000002c0: 5ceb b7be f96b e5be 84f8 9cbf 4884 8dbf
000002d0: 0f6c b2bf b0fe 8fbf 2539 bebf d2a0 f53d
000002e0: 6998 dfbe 5efc 7abf 5ef5 1a3d 6103 02bf
000002f0: e9fb 9fbf bc41 32bf 0400 6abf d0f6 adbf
00000300: 2fbe 7cbf eeae 00bf 0444 9ebe c8c6 d9bf
00000310: 9c88 87bf f9ef b0be 1ee5 86be d07b acbe
00000320: 33c2 32be be47 0fbe af53 b2be 6073 533d
00000330: 283a 053e eee0 5c3e c8be 40be 28b4 c9be
00000340: d3cf 2cbe 7755 4b3d 495a 42be 1e4a 373e
00000350: 6acc 71be 576c 34be 5e7e 233d 4d25 5abe
00000360: 1ca2 d53d b978 843d 9d07 923e 8757 80be
00000370: fef6 683e 941c bdbd bbed 9abd dacc ca3d
00000380: 6364 9ebd 3ba3 4e3c 194d 6b3e bac4 2a3e
00000390: 6d15 0f3f 57f3 153e c208 f73d 57d8 b43e
000003a0: 7a74 74bd 4ad4 debe 48e3 003e cb42 123d
000003b0: 32dd 313e 8715 d63d eb97 dd3c 7f91 c8be
000003c0: de47 a8bd 2089 05be dffa 863e 6205 2c3e
000003d0: 2e8d 79be 2d79 983d a4fa 4e3e 9d0e 943e
000003e0: f27c 303e 5dc5 3bbd 5664 b13e 2aa2 4e3e
000003f0: 671a 433e 796d 37be f13e 3fbe e89f 5a3e
-2.0397503 -2.1024513 -0.62070304 -2.8459263 -2.1598775 -0.96786535 -1.0190039 -1.1773307
-0.6056118 -2.2917008 -1.1366702 -1.1599321 -0.74645334 -0.5312616 -2.5109189 -0.50794333
-1.7180496 -2.23154 -0.057121325 -1.37778 -1.059892 -2.632247 -2.4860206 -1.9326744
-2.5311415 -2.0641682 -0.07507895 -1.4993728 -1.1114336 -2.0233083 -1.2986093 -0.98886245
-2.3778605 -1.6821418 -2.4237034 -0.38874087 -1.7995843 -0.99804306 -2.6224189 -0.7999482
-2.597656 -1.7285624 0.18866809 -1.0823574 -1.0810416 -2.6523132 -0.9996271 -1.5729522
-1.2231145 -1.199602 -0.13569748 0.21893257 -1.7539308 -1.0721501 -0.38926503 -0.366913
-1.2977618 -0.524926 -0.42676148 -1.1932961 -0.97101086 -0.46833795 -0.97730064 -1.885357
-1.0016339 -1.6394039 -2.0660474 -1.2320969 -0.39095816 -2.2506719 -2.7536933 -0.24287784
-1.9189439 -1.0290419 -1.122677 -0.9645221 -1.1117426 -1.2973528 -1.0155373 -2.179998
-2.6268857 -0.78845745 -1.540102 -0.31673357 -1.0418344 -0.25767043 -0.81315017 -0.9942557
-0.87500936 -1.4116976 -2.246416 -2.0053947 -1.9863839 -1.6869498 -1.1204718 -2.1026947
-2.005083 -0.20760041 -0.80184454 -0.46040115 -1.3618482 -1.0049491 -0.70974857 -1.4531766
-1.7698224 -0.50275177 -0.1360592 -1.0623424 0.027920548 -1.6416267 -1.2402538 -1.1906042
-0.1420283 -1.6307313 -1.5914133 -0.13131227 -0.44559923 -1.1965468 0.2902102 -1.216965
-0.5226626 -1.601887 -1.697374 -0.38006386 -1.6045988 -1.322064 -0.23798163 -1.7384435
-1.0072305 -0.8822791 -0.5572756 -0.48879662 -1.6325405 -1.0970197 -1.5428175 -0.17190202
-1.465723 -0.47656432 -1.333012 -1.0327922 -1.5901926 -0.7021074 0.22636604 -0.46680483
-0.57164985 -1.483065 -0.32831803 -0.9192866 -0.5785537 -0.4103021 0.0094901025 -0.013410222
-1.4568543 -0.36621547 -1.3082311 0.11987231 -1.8879284 -0.5570548 0.03675783 -0.9438048
-0.28416693 -0.2066925 -0.1935221 -0.7352509 -0.86361647 -0.27356577 -0.7962724 -0.54022634
-0.30967852 -1.7748013 -1.4598175 -0.33024624 -0.6660276 -1.1038458 -0.42532992 -0.19752732
-0.35921752 -0.4480894 -1.2263341 -1.1055994 -1.3939227 -1.12496 -1.4861189 0.11993565
-0.43670967 -0.9804133 0.037831657 -0.50786406 -1.2498752 -0.6963155 -0.91406274 -1.3590946
-0.987277 -0.5026692 -0.30911267 -1.7013788 -1.0588565 -0.34558085 -0.26346678 -0.3368821
-0.17456894 -0.13992211 -0.3482947 0.051623702 0.13010466 0.21570179 -0.18822777 -0.3939526
-0.16876154 0.049642053 -0.18979754 0.17899367 -0.23613134 -0.17619453 0.039915435 -0.21303292
0.104313105 0.064683385 0.28521433 -0.25066778 0.2275047 -0.092339665 -0.07564875 0.099023536
-0.07733991 0.012612159 0.22978629 0.16676608 0.5589207 0.14643608 0.12062217 0.35321304
-0.059681393 -0.4352134 0.12586701 0.03570823 0.17369536 0.10453325 0.02704998 -0.39173505
-0.082168326 -0.1304059 0.26363274 0.16798928 -0.24370262 0.074449874 0.202128 0.289174
0.17235163 -0.045842517 0.34646863 0.20179048 0.1905304 -0.17912854 -0.18676354 0.21350062

linear.weight f4 [1, 100]
00000000: fd1d 29bd 59f6 e6bc 921d 643d 5daa 0ebc
00000010: 1fe4 133d bfd2 95be 2c96 673d ba20 4a3e
00000020: 6e4e 893d 72e6 9b3c 2106 c5b9 1b12 d1bc
00000030: 6e55 3a3e 972a 6fbd ebfb e23b 1728 4d3d
00000040: f8bc ccbd eb1b e1bd 2373 86be 4c3c 5c3d
00000050: 6b99 02be 32af 5c3c 5aef e4bc 1489 fcbc
00000060: a9c6 653c 61ec 2d3d 27b1 cabd e12d 073e
00000070: 135f d1be 2cf5 92ba b527 0b3d dcc4 0cbd
00000080: 76fa c3bc 19c2 cc3e f04f 023d dc6b 8dbe
00000090: a62f 86bd 845d 7abd e949 053c 3994 f93d
000000a0: 49e0 0a3c b74a 283d 428e 01bf 9c5d a8bb
000000b0: 6571 833b b4ce 69ba cf33 87bd 3a37 97be
000000c0: 417c 3fbe ac31 493e e2c7 61be 9ceb 07bf
000000d0: 1191 bd3c b6aa a63d 5c8b a03d d268 d5bd
000000e0: 9074 363e 633d 94be ca4c 75bd 8b54 76bc
000000f0: b7d4 2e3d a6f5 64be ad02 c63d 6f87 c93d
00000100: 8a50 823d da80 8cbd ccf5 98bd ddf7 0abd
00000110: ab3a f5bd e192 b73c 3d11 b9bb dcd4 963d
00000120: e292 d93c 194b 4dbe 4c6d 88bd 7005 4f3d
00000130: 10e1 3c3e 3b5d f8bc 8510 2abe 40fc 8abc
00000140: 3f66 42bb 1ad0 563d eca2 81bd be66 6cbe
00000150: 119b 36bd 89da 733d 573c 99be b6fa f73c
00000160: fbeb e13d 7502 bc3c 35f0 7bbc 3ab5 1b3c
00000170: cc74 9fbd 10a1 9dba b5be 813d 9b23 27bd
00000180: 852f b2bd f554 8abe 9aaa a4bc 155e 923e
-0.041288365 -0.02819364 0.055692263 -0.00870761 0.036106225 -0.2926235 0.0565397 0.19739047
0.067044124 0.019030783 -0.00037579334 -0.025521329 0.18196651 -0.058390226 0.0069270036 0.05008706
-0.099969804 -0.10991653 -0.26259717 0.05376844 -0.12753837 0.013469504 -0.027946163 -0.030827083
0.014024415 0.042461757 -0.098970704 0.13201095 -0.40892848 -0.0011211983 0.033973414 -0.034367427
-0.02392314 0.39991835 0.031814516 -0.27621353 -0.06552057 -0.06112434 0.008135297 0.12186474
0.008476325 0.04108688 -0.50607693 -0.005138112 0.0040113204 -0.0008919046 -0.066016786 -0.29534322
-0.18699743 0.19647855 -0.22048905 -0.53093886 0.023140462 0.08138029 0.07839081 -0.104203835
0.17817903 -0.28953084 -0.059887685 -0.015034805 0.04268333 -0.22359332 0.09668479 0.09840285
0.06363018 -0.06860514 -0.07468757 -0.033927787 -0.11974081 0.022408905 -0.005647807 0.073648185
0.026559297 -0.20048179 -0.06661472 0.050542295 0.1844523 -0.030317893 -0.16607864 -0.016965985
-0.0029662994 0.052444555 -0.06329903 -0.23086068 -0.044581477 0.059534583 -0.29928848 0.030270915
0.11031338 0.02295039 -0.015377094 0.009503657 -0.07785949 -0.001202615 0.063352026 -0.04080544
-0.0870047 -0.27017942 -0.02010088 0.28587404
